model.pth (torch, 2903 bytes, 5 tensors)

weight f4 [5, 4]
0	0x3e29d600	0.16585541
1	0xbe182a20	-0.1485982
2	0x3e9e0a34	0.3086716
3	0xbe24410c	-0.16040438
4	0xbebbcb10	-0.36678362
5	0xbdb4ac68	-0.088219464
6	0xbe7830d0	-0.2423737
7	0xbe1ca460	-0.15297079
8	0xbf536293	-0.8257229
9	0xbea2861e	-0.31742948
10	0xbfb6591e	-1.4245946
11	0x3e7fb2a8	0.24970496
12	0x3f217601	0.63070685
13	0x3f8ed889	1.1159831
14	0x3f634bd1	0.8878756
15	0x3eade42b	0.3396314
16	0xbe720c80	-0.23637581
17	0x3e3dfcc8	0.1855346
18	0x3ef069d2	0.46955734
19	0xbd906aa8	-0.07051593

bias f4 [5]
0	0xbb7d6900	-0.0038667321
1	0xbdebc190	-0.115115285
2	0xbf02051b	-0.5078904
3	0x3ebfed17	0.37485573
4	0xbefe22c2	-0.49635893

weight f4 [3, 5]
0	0x3e8e258a	0.27763015
1	0x3eab52d8	0.33461642
2	0x3ee17790	0.4403653
3	0xbe614b02	-0.2200127
4	0xbebc2255	-0.36744943
5	0x3dcdeba8	0.100547135
6	0x3e7cfb74	0.24705297
7	0xbee3e631	-0.4451156
8	0xbdcfe490	-0.10151017
9	0xbe894264	-0.26808465
10	0xbd203708	-0.039114982
11	0xbe616855	-0.22012456
12	0xbe3b319c	-0.18280643
13	0xbe116116	-0.14197192
14	0xbed99824	-0.42498887

bias f4 [3]
0	0x3e8f6b4c	0.2801155
1	0x3ebff49c	0.3749131
2	0xbd8face4	-0.07015398

weight f4 [1, 3]
0	0xbe16eca5	-0.1473871
1	0xbe714880	-0.23562813
2	0xbf057964	-0.5213835
